…
|          decoder.decoder_norm.bias          |    512     |
|         decoder.decoder_pred.weight         |   393216   |
|          decoder.decoder_pred.bias          |    768     |
|                  ln1.weight                 |    384     |
|                   ln1.bias                  |    384     |
|                  ln2.weight                 |    384     |
|                   ln2.bias                  |    384     |
+---------------------------------------------+------------+
Total Trainable Params: 51764276
Mamba2DModel_Pruning(
  (patch_embed): PatchEmbed(
    (adaptive_padding): AdaptivePadding()
    (projection): Conv2d(3, 384, kernel_size=(8, 8), stride=(8, 8))
  )
  (drop_after_pos): Dropout(p=0.1, inplace=False)
  (layers): ModuleList(
    (0-8): 9 x Block(
      (mixer): Mamba(
        (in_proj): Linear(in_features=384, out_features=1536, bias=False)
        (conv1d): Conv1d(768, 768, kernel_size=(4,), stride=(1,), padding=(3,), groups=768)
        (act): SiLU()
        (x_proj): Linear(in_features=768, out_features=56, bias=False)
        (dt_proj): Linear(in_features=24, out_features=768, bias=True)
        (out_proj): Linear(in_features=768, out_features=384, bias=False)
      )
      (norm): LayerNorm((384,), eps=1e-05, elementwise_affine=True)
      (drop_path): DropPath()
      (dropout): Dropout(p=0.1, inplace=False)
    )
    (9): Block(
      (mixer): Mamba(
        (in_proj): Linear(in_features=384, out_features=1536, bias=False)
        (conv1d): Conv1d(768, 768, kernel_size=(4,), stride=(1,), padding=(3,), groups=768)
        (act): SiLU()
        (x_proj): Linear(in_features=768, out_features=56, bias=False)
        (dt_proj): Linear(in_features=24, out_features=768, bias=True)
        (out_proj): Linear(in_features=768, out_features=384, bias=False)
      )
      (norm): LayerNorm((384,), eps=1e-05, elementwise_affine=True)
      (drop_path): DropPath()
      (dropout): Dropout(p=0.1, inplace=False)
      (down_sample_layer): PatchMerging(
        (adaptive_padding): AdaptivePadding()
        (sampler): Unfold(kernel_size=(2, 2), dilation=(1, 1), padding=(0, 0), stride=(2, 2))
        (reduction): Linear(in_features=1536, out_features=384, bias=False)
        (norm): LayerNorm((1536,), eps=1e-05, elementwise_affine=True)
      )
    )
    (10-23): 14 x Block(
      (mixer): Mamba(
        (in_proj): Linear(in_features=384, out_features=1536, bias=False)
        (conv1d): Conv1d(768, 768, kernel_size=(4,), stride=(1,), padding=(3,), groups=768)
        (act): SiLU()
        (x_proj): Linear(in_features=768, out_features=56, bias=False)
        (dt_proj): Linear(in_features=24, out_features=768, bias=True)
        (out_proj): Linear(in_features=768, out_features=384, bias=False)
      )
      (norm): LayerNorm((384,), eps=1e-05, elementwise_affine=True)
      (drop_path): DropPath()
      (dropout): Dropout(p=0.1, inplace=False)
    )
  )
  (score_predictor): ModuleList(
    (0-5): 6 x PredictorLG(
      (in_conv_local): Sequential(
        (0): LayerNorm((384,), eps=1e-05, elementwise_affine=True)
        (1): Linear(in_features=384, out_features=384, bias=True)
        (2): GELU(approximate='none')
      )
      (out_conv): Sequential(
        (0): Linear(in_features=384, out_features=192, bias=True)
        (1): GELU(approximate='none')
        (2): Linear(in_features=192, out_features=96, bias=True)
        (3): GELU(approximate='none')
        (4): Linear(in_features=96, out_features=2, bias=True)
        (5): LogSoftmax(dim=-1)
      )
    )
  )
  (head): Linear(in_features=384, out_features=1000, bias=True)
  (decoder): MAE_Decoder(
    (decoder_embed): Linear(in_features=384, out_features=512, bias=True)
    (decoder_blocks): ModuleList(
      (0-7): 8 x Block(
        (norm1): LayerNorm((512,), eps=1e-06, elementwise_affine=True)
        (attn): Attention(
          (qkv): Linear(in_features=512, out_features=1536, bias=True)
          (attn_drop): Dropout(p=0.0, inplace=False)
          (proj): Linear(in_features=512, out_features=512, bias=True)
          (proj_drop): Dropout(p=0.0, inplace=False)
        )
        (drop_path): Identity()
        (norm2): LayerNorm((512,), eps=1e-06, elementwise_affine=True)
        (mlp): Mlp(
          (fc1): Linear(in_features=512, out_features=2048, bias=True)
          (act): GELU(approximate='none')
          (fc2): Linear(in_features=2048, out_features=512, bias=True)
          (drop): Dropout(p=0.0, inplace=False)
        )
      )
    )
    (decoder_norm): LayerNorm((512,), eps=1e-06, elementwise_affine=True)
    (decoder_pred): Linear(in_features=512, out_features=768, bias=True)
  )
  (pre_norm): Identity()
  (ln1): LayerNorm((384,), eps=1e-06, elementwise_affine=True)
  (ln2): LayerNorm((384,), eps=1e-06, elementwise_affine=True)
)
Weights of Mamba2DModel_Pruning not initialized from pretrained model: ['score_predictor.0.in_conv_local.0.weight', 'score_predictor.0.in_conv_local.0.bias', 'score_predictor.0.in_conv_local.1.weight', 'score_predictor.0.in_conv_local.1.bias', 'score_predictor.0.out_conv.0.weight', 'score_predictor.0.out_conv.0.bias', 'score_predictor.0.out_conv.2.weig
…
