…
_mem=True, distributed=True, world_size=8, dist_url='env://', if_amp=False, if_continue_inf=False, if_nan2num=False, if_random_cls_token_position=False, if_random_token_rank=False, base_rate=0.7, lr_scale=0.01, ratio_weight=2.0, local_rank=0, rank=0, gpu=0, dist_backend='nccl')
Creating model: vimpruning_tiny_patch16_224_bimambav2_final_pool_mean_abs_pos_embed_with_clstok_div2
keep_rate [0.7, 0.48999999999999994, 0.3429999999999999]
VisionMambaPrunning(
  (token_merge_module): TPSModule()
  (score_predictor): ModuleList(
    (0-2): 3 x PredictorLG(
      (in_conv_local): Sequential(
        (0): LayerNorm((192,), eps=1e-05, elementwise_affine=True)
        (1): Linear(in_features=192, out_features=96, bias=True)
        (2): GELU(approximate='none')
      )
      (in_conv_cls): Sequential(
        (0): LayerNorm((192,), eps=1e-05, elementwise_affine=True)
        (1): Linear(in_features=192, out_features=96, bias=True)
        (2): GELU(approximate='none')
      )
      (out_conv): Sequential(
        (0): Linear(in_features=192, out_features=96, bias=True)
        (1): GELU(approximate='none')
        (2): Linear(in_features=96, out_features=48, bias=True)
        (3): GELU(approximate='none')
        (4): Linear(in_features=48, out_features=2, bias=True)
        (5): LogSoftmax(dim=-1)
      )
    )
  )
  (patch_embed): PatchEmbed(
    (proj): Conv2d(3, 192, kernel_size=(16, 16), stride=(16, 16))
    (norm): Identity()
  )
  (pos_drop): Dropout(p=0.0, inplace=False)
  (head): Linear(in_features=192, out_features=1000, bias=True)
  (drop_path): Identity()
  (layers): ModuleList(
    (0-23): 24 x Block(
      (mixer): Mamba(
        (in_proj): Linear(in_features=192, out_features=768, bias=False)
        (conv1d): Conv1d(384, 384, kernel_size=(4,), stride=(1,), padding=(3,), groups=384)
        (act): SiLU()
        (x_proj): Linear(in_features=384, out_features=44, bias=False)
        (dt_proj): Linear(in_features=12, out_features=384, bias=True)
        (conv1d_b): Conv1d(384, 384, kernel_size=(4,), stride=(1,), padding=(3,), groups=384)
        (x_proj_b): Linear(in_features=384, out_features=44, bias=False)
        (dt_proj_b): Linear(in_features=12, out_features=384, bias=True)
        (out_proj): Linear(in_features=384, out_features=192, bias=False)
      )
      (norm): RMSNorm()
      (drop_path): Identity()
    )
  )
  (norm_f): RMSNorm()
)
Weights of VisionMambaPrunning not initialized from pretrained model: ['score_predictor.0.in_conv_local.0.weight', 'score_predictor.0.in_conv_local.0.bias', 'score_predictor.0.in_conv_local.1.weight', 'score_predictor.0.in_conv_local.1.bias', 'score_predict
…
