…
k=False, base_rate=0.5, lr_scale=0.01, ratio_weight=2.0, pruning_weight=0.1, mse_weight=0.02, pretrained_mae_path='/cluster/work/cvl/guosun/shangye/output/pretrain_mae_vim/vim_tiny_patch16_224_bimambav2_final_pool_mean_abs_pos_embed_with_clstok_div2_mae_300e/checkpoint.pth', local_rank=0, rank=0, gpu=0, dist_backend='nccl')
Creating model: vimpruning_tiny_patch16_224_bimambav2_final_pool_mean_abs_pos_embed_with_clstok_div2
keep_rate [0.5]
VisionMambaPrunning(
  (token_merge_module): TPSModule()
  (score_predictor): ModuleList(
    (0): PredictorLG(
      (in_conv_local): Sequential(
        (0): LayerNorm((192,), eps=1e-05, elementwise_affine=True)
        (1): Linear(in_features=192, out_features=96, bias=True)
        (2): GELU(approximate='none')
      )
      (in_conv_cls): Sequential(
        (0): LayerNorm((192,), eps=1e-05, elementwise_affine=True)
        (1): Linear(in_features=192, out_features=96, bias=True)
        (2): GELU(approximate='none')
      )
      (out_conv): Sequential(
        (0): Linear(in_features=192, out_features=96, bias=True)
        (1): GELU(approximate='none')
        (2): Linear(in_features=96, out_features=48, bias=True)
        (3): GELU(approximate='none')
        (4): Linear(in_features=48, out_features=2, bias=True)
        (5): LogSoftmax(dim=-1)
      )
    )
  )
  (patch_embed): PatchEmbed(
    (proj): Conv2d(3, 192, kernel_size=(16, 16), stride=(16, 16))
    (norm): Identity()
  )
  (pos_drop): Dropout(p=0.0, inplace=False)
  (head): Linear(in_features=192, out_features=1000, bias=True)
  (drop_path): Identity()
  (layers): ModuleList(
    (0-23): 24 x Block(
      (mixer): Mamba(
        (in_proj): Linear(in_features=192, out_features=768, bias=False)
        (conv1d): Conv1d(384, 384, kernel_size=(4,), stride=(1,), padding=(3,), groups=384)
        (act): SiLU()
        (x_proj): Linear(in_features=384, out_features=44, bias=False)
        (dt_proj): Linear(in_features=12, out_features=384, bias=True)
        (conv1d_b): Conv1d(384, 384, kernel_size=(4,), stride=(1,), padding=(3,), groups=384)
        (x_proj_b): Linear(in_features=384, out_features=44, bias=False)
        (dt_proj_b): Linear(in_features=12, out_features=384, bias=True)
        (out_proj): Linear(in_features=384, out_features=192, bias=False)
      )
      (norm): RMSNorm()
      (drop_path): Identity()
    )
  )
  (decoder): MAE_Decoder(
    (decoder_embed): Linear(in_features=192, out_features=512, bias=True)
    (decoder_blocks): ModuleList(
      (0-7): 8 x Block(
        (norm1): LayerNorm((512,), eps=1e-06, elementwise_affine=True)
        (attn): Attention(
          (qkv): Linear(in_features=512, out_features=1536, bias=True)
          (attn_drop): Dropout(p=0.0, inplace=False)
          (proj): Linear(in_features=512, out_features=512, bias=True)
          (proj_drop): Dropout(p=0.0, inplace=False)
        )
        (drop_path): Identity()
        (norm2): LayerNorm((512,), eps=1e-06, elementwise_affine=True)
        (mlp): Mlp(
          (fc1): Linear(in_features=512, out_features=2048, bias=True)
          (act): GELU(approximate='none')
          (fc2): Linear(in_features=2048, out_features=512, bias=True)
          (drop): Dropout(p=0.0, inplace=False)
        )
      )
    )
    (decoder_norm): LayerNorm((512,), eps=1e-06, elementwise_affine=True)
    (decoder_pred): Linear(in_features=512, out_features=768, bias=True)
  )
  (norm_f): RMSNorm()
)
Weights of VisionMambaPrunning not initialized from pretrained model: ['score_predictor.0.in_conv_local.0.weight', 'score_predictor.0.in_conv_local.0.bias', 'score_predictor.0.in_conv_local.1.weight', 'score_predictor.0.in_conv_local.1.bias', 'score_predictor.0.in_conv_cls.0.weight', 'score_predictor.0.in_conv_cls.0.bias', '
…
