…
mp=False, if_continue_inf=True, if_nan2num=False, if_random_cls_token_position=False, if_random_token_rank=False, base_rate=0.8, lr_scale=0.01, ratio_weight=2.0, pruning_weight=0.1, mse_weight=0.0, pretrained_mae_path='', local_rank=0, rank=0, gpu=0, dist_backend='nccl')
Creating model: vimpruning_tiny_patch16_stride8_224_bimambav2_final_pool_mean_abs_pos_embed_with_clstok_div2
keep_rate [0.8, 0.6400000000000001, 0.5120000000000001]
VisionMambaPrunning(
  (token_merge_module): TPSModule()
  (score_predictor): ModuleList(
    (0-2): 3 x PredictorLG(
      (in_conv_local): Sequential(
        (0): LayerNorm((192,), eps=1e-05, elementwise_affine=True)
        (1): Linear(in_features=192, out_features=96, bias=True)
        (2): GELU(approximate='none')
      )
      (in_conv_cls): Sequential(
        (0): LayerNorm((192,), eps=1e-05, elementwise_affine=True)
        (1): Linear(in_features=192, out_features=96, bias=True)
        (2): GELU(approximate='none')
      )
      (out_conv): Sequential(
        (0): Linear(in_features=192, out_features=96, bias=True)
        (1): GELU(approximate='none')
        (2): Linear(in_features=96, out_features=48, bias=True)
        (3): GELU(approximate='none')
        (4): Linear(in_features=48, out_features=2, bias=True)
        (5): LogSoftmax(dim=-1)
      )
    )
  )
  (patch_embed): PatchEmbed(
    (proj): Conv2d(3, 192, kernel_size=(16, 16), stride=(8, 8))
    (norm): Identity()
  )
  (pos_drop): Dropout(p=0.0, inplace=False)
  (head): Linear(in_features=192, out_features=1000, bias=True)
  (drop_path): Identity()
  (layers): ModuleList(
    (0-23): 24 x Block(
      (mixer): Mamba(
        (in_proj): Linear(in_features=192, out_features=768, bias=False)
        (conv1d): Conv1d(384, 384, kernel_size=(4,), stride=(1,), padding=(3,), groups=384)
        (act): SiLU()
        (x_proj): Linear(in_features=384, out_features=44, bias=False)
        (dt_proj): Linear(in_features=12, out_features=384, bias=True)
        (conv1d_b): Conv1d(384, 384, kernel_size=(4,), stride=(1,), padding=(3,), groups=384)
        (x_proj_b): Linear(in_features=384, out_features=44, bias=False)
        (dt_proj_b): Linear(in_features=12, out_features=384, bias=True)
        (out_proj): Linear(in_features=384, out_features=192, bias=False)
      )
      (norm): RMSNorm()
      (drop_path): Identity()
    )
  )
  (norm_f): RMSNorm()
)
number of params: 7433662
ratio_weight= 2.0 reconstruction_weight 0.0 pruning_weight 0.1
Start training for 30 epochs
Epoch: [0]  [   0/2502]  eta: 13:59:16  lr: 0.000001  loss: 5.8805 (5.8805)  time: 20.1265  data: 9.4525  max mem: 18864
Epoch: [0]  [  10/2502]  eta: 2:04:35  lr: 0.000001  loss: 5.5435 (5.4923)  time: 2.9998  data: 0.8595  max mem: 18919
…
