…
ontinue_inf=True, if_nan2num=False, if_random_cls_token_position=False, if_random_token_rank=False, base_rate=0.9, lr_scale=0.01, ratio_weight=2.0, pruning_weight=0.1, mse_weight=0.02, pretrained_mae_path='/cluster/work/cvl/guosun/shangye/output/pretrain_mae_vim/vim_tiny_patch16_224_bimambav2_final_pool_mean_abs_pos_embed_with_clstok_div2_mae_300e/checkpoint.pth', local_rank=0, rank=0, gpu=0, dist_backend='nccl')
Creating model: mamba_vision_T_pruning
keep_rate [0.9, 0.81, 0.7290000000000001]
MambaVision(
  (patch_embed): PatchEmbed(
    (proj): Identity()
    (conv_down): Sequential(
      (0): Conv2d(3, 32, kernel_size=(3, 3), stride=(2, 2), padding=(1, 1), bias=False)
      (1): BatchNorm2d(32, eps=0.0001, momentum=0.1, affine=True, track_running_stats=True)
      (2): ReLU()
      (3): Conv2d(32, 80, kernel_size=(3, 3), stride=(2, 2), padding=(1, 1), bias=False)
      (4): BatchNorm2d(80, eps=0.0001, momentum=0.1, affine=True, track_running_stats=True)
      (5): ReLU()
    )
  )
  (levels): ModuleList(
    (0): MambaVisionLayer(
      (blocks): ModuleList(
        (0): ConvBlock(
          (conv1): Conv2d(80, 80, kernel_size=(3, 3), stride=(1, 1), padding=(1, 1))
          (norm1): BatchNorm2d(80, eps=1e-05, momentum=0.1, affine=True, track_running_stats=True)
          (act1): GELU(approximate='tanh')
          (conv2): Conv2d(80, 80, kernel_size=(3, 3), stride=(1, 1), padding=(1, 1))
          (norm2): BatchNorm2d(80, eps=1e-05, momentum=0.1, affine=True, track_running_stats=True)
          (drop_path): Identity()
        )
      )
      (downsample): Downsample(
        (reduction): Sequential(
          (0): Conv2d(80, 160, kernel_size=(3, 3), stride=(2, 2), padding=(1, 1), bias=False)
        )
      )
    )
    (1): MambaVisionLayer(
      (blocks): ModuleList(
        (0-2): 3 x ConvBlock(
          (conv1): Conv2d(160, 160, kernel_size=(3, 3), stride=(1, 1), padding=(1, 1))
          (norm1): BatchNorm2d(160, eps=1e-05, momentum=0.1, affine=True, track_running_stats=True)
          (act1): GELU(approximate='tanh')
          (conv2): Conv2d(160, 160, kernel_size=(3, 3), stride=(1, 1), padding=(1, 1))
          (norm2): BatchNorm2d(160, eps=1e-05, momentum=0.1, affine=True, track_running_stats=True)
          (drop_path): DropPath()
        )
      )
      (downsample): Downsample(
        (reduction): Sequential(
          (0): Conv2d(160, 320, kernel_size=(3, 3), stride=(2, 2), padding=(1, 1), bias=False)
        )
      )
    )
    (2): MambaVisionLayer(
      (blocks): ModuleList(
        (0-3): 4 x Block(
          (norm1): LayerNorm((320,), eps=1e-05, elementwise_affine=True)
          (mixer): MambaVisionMixer(
            (in_proj): Linear(in_features=320, out_features=320, bias=False)
            (x_proj): Linear(in_features=160, out_features=36, bias=False)
            (dt_proj): Linear(in_features=20, out_features=160, bias=True)
            (out_proj): Linear(in_features=320, out_features=320, bias=False)
            (conv1d_x): Conv1d(160, 160, kernel_size=(3,), stride=(1,), groups=160, bias=False)
            (conv1d_z): Conv1d(160, 160, kernel_size=(3,), stride=(1,), groups=160, bias=False)
          )
          (drop_path): DropPath()
          (norm2): LayerNorm((320,), eps=1e-05, elementwise_affine=True)
          (mlp): Mlp(
            (fc1): Linear(in_features=320, out_features=1280, bias=True)
            (act): GELU(approximate='none')
            (fc2): Linear(in_features=1280, out_features=320, bias=True)
            (drop): Dropout(p=0.1, inplace=False)
          )
        )
        (4-7): 4 x Block(
          (norm1): LayerNorm((320,), eps=1e-05, elementwise_affine=True)
          (mixer): Attention(
            (qkv): Linear(in_features=320, out_features=960, bias=True)
            (q_norm): Identity()
            (k_norm): Identity()
            (attn_drop): Dropout(p=0.0, inplace=False)
            (proj): Linear(in_features=320, out_features=320, bias=True)
            (proj_drop): Dropout(p=0.1, inplace=False)
          )
          (drop_path): DropPath()
          (norm2): LayerNorm((320,), eps=1e-05, elementwise_affine=True)
          (mlp): Mlp(
            (fc1): Linear(in_features=320, out_features=1280, bias=True)
            (act): GELU(approximate='none')
            (fc2): Linear(in_features=1280, out_features=320, bias=True)
            (drop): Dropout(p=0.1, inplace=False)
          )
        )
      )
      (downsample): Downsample(
        (reduction): Sequential(
          (0): Conv2d(320, 640, kernel_size=(3, 3), stride=(2, 2), padding=(1, 1), bias=False)
        )
      )
    )
    (3): MambaVisionLayer(
      (blocks): ModuleList(
        (0-1): 2 x Block(
          (norm1): LayerNorm((640,), eps=1e-05, elementwise_affine=True)
          (mixer): MambaVisionMixer(
            (in_proj): Linear(in_features=640, out_features=640, bias=False)
            (x_proj): Linear(in_features=320, out_features=56, bias=False)
            (dt_proj): Linear(in_features=40, out_features=320, bias=True)
            (out_proj): Linear(in_features=640, out_features=640, bias=False)
            (conv1d_x): Conv1d(320, 320, kernel_size=(3,), stride=(1,), groups=320, bias=False)
            (conv1d_z): Conv1d(320, 320, kernel_size=(3,), stride=(1,), groups=320, bias=False)
          )
          (drop_path): DropPath()
          (norm2): LayerNorm((640,), eps=1e-05, elementwise_affine=True)
          (mlp): Mlp(
            (fc1): Linear(in_features=640, out_features=2560, bias=True)
            (act): GELU(approximate='none')
            (fc2): Linear(in_features=2560, out_features=640, bias=True)
            (drop): Dropout(p=0.1, inplace=False)
          )
        )
        (2-3): 2 x Block(
          (norm1): LayerNorm((640,), eps=1e-05, elementwise_affine=True)
          (mixer): Attention(
            (qkv): Linear(in_features=640, out_features=1920, bias=True)
            (q_norm): Identity()
            (k_norm): Identity()
            (attn_drop): Dropout(p=0.0, inplace=False)
            (proj): Linear(in_features=640, out_features=640, bias=True)
            (proj_drop): Dropout(p=0.1, inplace=False)
          )
          (drop_path): DropPath()
          (norm2): LayerNorm((640,), eps=1e-05, elementwise_affine=True)
          (mlp): Mlp(
            (fc1): Linear(in_features=640, out_features=2560, bias=True)
            (act): GELU(approximate='none')
            (fc2): Linear(in_features=2560, out_features=640, bias=True)
            (drop): Dropout(p=0.1, inplace=False)
          )
        )
      )
    )
  )
  (score_predictor): ModuleList(
    (0-2): 3 x PredictorLG(
      (in_conv_local): Sequential(
        (0): LayerNorm((320,), eps=1e-05, elementwise_affine=True)
        (1): Linear(in_features=320, out_features=320, bias=True)
        (2): GELU(approximate='none')
      )
      (out_conv): Sequential(
        (0): Linear(in_features=320, out_features=160, bias=True)
        (1): GELU(approximate='none')
        (2): Linear(in_features=160, out_features=80, bias=True)
        (3): GELU(approximate='none')
        (4): Linear(in_features=80, out_features=2, bias=True)
        (5): LogSoftmax(dim=-1)
      )
    )
  )
  (decoder): MAE_Decoder(
    (decoder_embed): Linear(in_features=320, out_features=512, bias=True)
    (decoder_blocks): ModuleList(
      (0-7): 8 x Block(
        (norm1): LayerNorm((512,), eps=1e-06, elementwise_affine=True)
        (attn): Attention(
          (qkv): Linear(in_features=512, out_features=1536, bias=True)
          (attn_drop): Dropout(p=0.0, inplace=False)
          (proj): Linear(in_features=512, out_features=512, bias=True)
          (proj_drop): Dropout(p=0.0, inplace=False)
        )
        (drop_path): Identity()
        (norm2): LayerNorm((512,), eps=1e-06, elementwise_affine=True)
        (mlp): Mlp(
          (fc1): Linear(in_features=512, out_features=2048, bias=True)
          (act): GELU(approximate='none')
          (fc2): Linear(in_features=2048, out_features=512, bias=True)
          (drop): Dropout(p=0.0, inplace=False)
        )
      )
    )
    (decoder_norm): LayerNorm((512,), eps=1e-06, elementwise_affine=True)
    (decoder_pred): Linear(in_features=512, out_features=768, bias=True)
  )
  (norm): BatchNorm2d(640, eps=1e-05, momentum=0.1, affine=True, track_running_stats=True)
  (avgpool): AdaptiveAvgPool2d(output_size=1)
  (head): Linear(in_features=640, out_features=1000, bias=True)
)
Weights of MambaVision not initialized from pretrained model: ['score_predictor.0.in_conv_local.0.weight', 'score_predictor.0.in_conv_local.0.bias', 'score_predictor.0.in_conv_local.1.weight', 'score_predictor.0.in_conv_local.1.bias', 'score_predictor.0.out_conv.0.weight', 'score_predictor.0.out_conv.0.bias', 'score_predictor.0.out_conv.2.weight', '
…
