…
s=32, pin_mem=True, distributed=True, world_size=8, dist_url='env://', if_amp=False, if_continue_inf=True, if_nan2num=False, if_random_cls_token_position=False, if_random_token_rank=False, base_rate=0.7, lr_scale=0.01, ratio_weight=2.0, pruning_weight=0.0, mse_weight=0.0, pretrained_mae_path='', local_rank=0, rank=0, gpu=0, dist_backend='nccl')
Creating model: vimpruning_tiny_patch16_224_bimambav2_final_pool_mean_abs_pos_embed_with_clstok_div2
keep_rate [0.7, 0.48999999999999994, 0.3429999999999999]
VisionMambaPrunning(
  (token_merge_module): TPSModule()
  (patch_embed): PatchEmbed(
    (proj): Conv2d(3, 192, kernel_size=(16, 16), stride=(16, 16))
    (norm): Identity()
  )
  (pos_drop): Dropout(p=0.0, inplace=False)
  (head): Linear(in_features=192, out_features=1000, bias=True)
  (drop_path): Identity()
  (layers): ModuleList(
    (0-23): 24 x Block(
      (mixer): Mamba(
        (in_proj): Linear(in_features=192, out_features=768, bias=False)
        (conv1d): Conv1d(384, 384, kernel_size=(4,), stride=(1,), padding=(3,), groups=384)
        (act): SiLU()
        (x_proj): Linear(in_features=384, out_features=44, bias=False)
        (dt_proj): Linear(in_features=12, out_features=384, bias=True)
        (conv1d_b): Conv1d(384, 384, kernel_size=(4,), stride=(1,), padding=(3,), groups=384)
        (x_proj_b): Linear(in_features=384, out_features=44, bias=False)
        (dt_proj_b): Linear(in_features=12, out_features=384, bias=True)
        (out_proj): Linear(in_features=384, out_features=192, bias=False)
      )
      (norm): RMSNorm()
      (drop_path): Identity()
    )
  )
  (norm_f): RMSNorm()
)
number of params: 7148008
ratio_weight= 2.0 reconstruction_weight 0.0 pruning_weight 0.0
Start training for 100 epochs
Epoch: [0]  [   0/1251]  eta: 10:45:19  lr: 0.000001  loss: 6.4954 (6.4954)  time: 30.9510  data: 22.7638  max mem: 5468
Epoch: [0]  [  10/1251]  eta: 1:07:10  lr: 0.000001  loss: 6.0924 (6.0838)  time: 3.2481  data: 2.0701  max mem: 5468
…
