…
token192_100e/', log_dir=None, device='cuda', seed=0, resume='', start_epoch=0, eval=False, eval_crop_ratio=0.875, dist_eval=False, num_workers=32, pin_mem=True, distributed=True, world_size=8, dist_url='env://', if_amp=False, if_continue_inf=False, if_nan2num=False, if_random_cls_token_position=False, if_random_token_rank=False, base_rate=0.9, lr_scale=0.01, ratio_weight=2.0, mask_ratio=0.75, local_rank=0, rank=0, gpu=0, dist_backend='nccl')
Creating model: vim_tiny_patch16_224_bimambav2_final_pool_mean_abs_pos_embed_with_clstok_div2_mae
VisionMamba_MAE(
  (patch_embed): PatchEmbed(
    (proj): Conv2d(3, 192, kernel_size=(16, 16), stride=(16, 16))
    (norm): Identity()
  )
  (head): Linear(in_features=192, out_features=1000, bias=True)
  (drop_path): Identity()
  (layers): ModuleList(
    (0-23): 24 x Block(
      (mixer): Mamba(
        (in_proj): Linear(in_features=192, out_features=768, bias=False)
        (conv1d): Conv1d(384, 384, kernel_size=(4,), stride=(1,), padding=(3,), groups=384)
        (act): SiLU()
        (x_proj): Linear(in_features=384, out_features=44, bias=False)
        (dt_proj): Linear(in_features=12, out_features=384, bias=True)
        (conv1d_b): Conv1d(384, 384, kernel_size=(4,), stride=(1,), padding=(3,), groups=384)
        (x_proj_b): Linear(in_features=384, out_features=44, bias=False)
        (dt_proj_b): Linear(in_features=12, out_features=384, bias=True)
        (out_proj): Linear(in_features=384, out_features=192, bias=False)
      )
      (norm): RMSNorm()
      (drop_path): Identity()
    )
  )
  (norm_f): RMSNorm()
  (decoder_embed): Linear(in_features=192, out_features=512, bias=True)
  (decoder_blocks): ModuleList(
    (0-7): 8 x Block(
      (norm1): LayerNorm((512,), eps=1e-06, elementwise_affine=True)
      (attn): Attention(
        (qkv): Linear(in_features=512, out_features=1536, bias=True)
        (attn_drop): Dropout(p=0.0, inplace=False)
        (proj): Linear(in_features=512, out_features=512, bias=True)
        (proj_drop): Dropout(p=0.0, inplace=False)
      )
      (drop_path): Identity()
      (norm2): LayerNorm((512,), eps=1e-06, elementwise_affine=True)
      (mlp): Mlp(
        (fc1): Linear(in_features=512, out_features=2048, bias=True)
        (act): GELU(approximate='none')
        (fc2): Linear(in_features=2048, out_features=512, bias=True)
        (drop): Dropout(p=0.0, inplace=False)
      )
    )
  )
  (decoder_norm): LayerNorm((512,), eps=1e-06, elementwise_affine=True)
  (decoder_pred): Linear(in_features=512, out_features=768, bias=True)
)
number of params: 32823272
actual_lr 0.0006
Start training for 100 epochs
Epoch: [0]  [   0/1251]  eta: 12:09:50  lr: 0.000001  loss: 1.4703 (1.4703)  time: 35.0044  data: 25.0332  max mem: 12075
Epoch: [0]  [  10/1251]  eta: 1:22:38  lr: 0.000001  loss: 1.5335 (1.7110)  time: 3.9958  data: 2.2761  max mem: 12401
Epoch: [0]  [  20/1251]  eta: 0:51:05  lr: 0.000001  loss: 1.9047 (1.7943)  time: 0.8645  data: 0.0004  max mem: 12401
…
